Bot (reference)/data.pth (torch, 4991 bytes, 6 tensors)

l1.weight f4 [8, 54]
000000 b9 51 4b be 6b 17 3b be ed 1c 99 bd 4a 3c 85 be
       -0.19855393 -0.18270652 -0.0747622 -0.2602256
000010 40 77 d4 be da 62 35 3f e6 cf b7 3d dc dd 4c be
       -0.4149723 0.7085396 0.089752 -0.20006508
000020 5d ab e3 bd a0 cd 82 bc 26 45 7f be 97 5f 43 3f
       -0.11116669 -0.01596719 -0.24928722 0.76317734
000030 f7 69 82 3e 3e bd 6c 3f d0 18 97 bd 52 f6 03 3f
       0.2547147 0.9247626 -0.073777795 0.5154773
000040 dc c4 07 be 43 78 52 3f 79 f1 b2 3e 1b 7e c3 be
       -0.1325869 0.82214755 0.34949854 -0.38182148
000050 c0 ab b4 bd 66 80 c3 be a3 93 c3 be f8 18 b8 3d
       -0.08821821 -0.38183898 -0.38198575 0.089891374
000060 5c ec da 3e 23 ec 45 be 1b f6 e1 3e 55 c6 f2 bd
       0.42758453 -0.1932836 0.44133076 -0.11854235
000070 c7 50 91 3e e4 76 8e be 53 07 0b 3f 6e bb 68 3f
       0.2838194 -0.2782508 0.5430805 0.90910995
000080 2f 99 c9 3d e6 f3 df bd a2 97 3a bc a6 27 b6 3e
       0.098436706 -0.10935192 -0.011388691 0.35577124
000090 85 24 b8 3e e8 88 8f 3d 7f d0 24 3e d6 29 dd 3d
       0.35965362 0.07008535 0.1609516 0.10798995
0000a0 9d a9 e5 3e 4e 63 f2 3e dc 96 2b 3f 6c f1 12 bd
       0.44855967 0.47341388 0.6702707 -0.03587477
0000b0 cd 7c 32 3f fd 8a 85 be 42 91 c3 be ad dc c2 bd
       0.6972168 -0.26082602 -0.3819676 -0.09514747
0000c0 6a e0 a1 3d 97 1f 11 3f 91 a9 a8 3e ca a1 9e 3e
       0.07904132 0.5668883 0.3294187 0.3098281
0000d0 db b3 9d 3d c3 7e 69 bd 02 b2 47 3f 9c 15 46 3d
       0.0770032 -0.057005655 0.78005993 0.048360452
0000e0 40 26 09 be 28 32 f1 3e 65 9b ca bd 01 8b ff 3e
       -0.13393497 0.4710858 -0.098929204 0.4991074
0000f0 cd 9f 00 bd c8 5b 76 bd d4 c1 a0 be b9 7d c5 3d
       -0.031402398 -0.060146123 -0.3139788 0.0964312
000100 df 0b 59 3e 80 db 06 3d 29 48 03 bf 4d 71 a9 be
       0.21195935 0.032924175 -0.5128198 -0.33094254
000110 6e b1 1e be 07 c3 73 3e 9b 98 ad 3e 88 99 41 3f
       -0.15497372 0.23804866 0.3390549 0.75624895
000120 eb d0 8b be ad 1d af 3e 2d 2f ef 3e 28 78 9e 3e
       -0.2730783 0.34202328 0.4671568 0.30951047
000130 40 57 a9 3e b1 ee f1 3e b6 96 36 bd d6 cf d6 3e
       0.3307438 0.4725242 -0.044577323 0.4195544
000140 99 28 48 be 2f e2 b7 be c5 36 3f be 7d d8 6d be
       -0.19546737 -0.35914752 -0.18673237 -0.23227115
000150 a6 d7 e3 3e a5 85 d7 be 6d 23 12 3f 05 6b 11 be
       0.44500464 -0.4209415 0.57085305 -0.14200981
000160 44 b8 75 be ab 72 fa 3c 9c 94 99 be 0e bd b3 be
       -0.23996073 0.030572256 -0.29996192 -0.35105175
000170 b0 56 cd 3c 61 5f 14 be dd c3 1f 3f 4f 59 c6 be
       0.02506575 -0.14489509 0.6240824 -0.38740012
000180 d6 43 88 be a0 b3 26 be a2 39 6a be 2e f9 49 be
       -0.26614255 -0.16279459 -0.22873548 -0.19723961
000190 1f 3e a0 3f 7e 77 04 3f 21 0d 29 3e f1 d5 c6 be
       1.2518958 0.5174483 0.16508915 -0.388351
0001a0 e8 34 4a 3d 6e 64 9d be 69 2f 30 3c 29 95 91 3e
       0.04936686 -0.30740684 0.010753491 0.28434113
0001b0 1b 9d 7e 3e 6d b8 a0 bd 59 c4 58 be 9e f8 bf be
       0.24864618 -0.078476764 -0.2116865 -0.37494367
0001c0 8b 01 f9 be a5 06 7d 3f f4 b5 ac be 8c af e9 be
       -0.4863399 0.98838264 -0.3373257 -0.45641744
0001d0 25 95 36 3d 8e ca bb be dc 1d b4 be 3f f6 0e 3f
       0.04457583 -0.36677974 -0.3517903 0.5584449
0001e0 52 83 a0 bd 74 4b 20 3f 55 d2 8a be 5f 7b f5 3e
       -0.07837547 0.6261513 -0.27113596 0.47945687
0001f0 68 57 a8 be ff 30 41 3f 3d 17 11 be 06 3a 2e bf
       -0.32879186 0.7546539 -0.14169021 -0.68057287
000200 29 ad 95 3e f1 3d 2e bf 48 41 2e bf 97 ba 9a bd
       0.29233673 -0.68063265 -0.6806836 -0.075551204
000210 c5 f1 dc 3e 52 c4 23 be a9 e2 0f be 41 1f a6 be
       0.43153206 -0.15992859 -0.14051308 -0.3244572
000220 06 0b 0c be bb 89 a6 bd 1c c9 39 3f 9c 01 41 3f
       -0.1367608 -0.08131739 0.72572494 0.7539308
000230 e6 53 56 3e f1 03 11 be cb 2b 7d be 00 3b 97 3e
       0.20930442 -0.1416166 -0.24723737 0.295372
000240 52 03 65 bc 85 8c f9 bd 69 4c 45 be 31 9a b9 be
       -0.013977842 -0.12185005 -0.1926743 -0.3625045
000250 f5 af 1a 3f c6 1b 24 be 2f 40 22 3f 7f 43 96 bd
       0.6042474 -0.1602622 0.63379186 -0.073370926
000260 c5 3b ae 3e 8f 11 b6 bd 23 21 2a 3f 12 2a 6a 3e
       0.34029976 -0.08890068 0.6645681 0.22867611
000270 28 24 15 be db 04 a6 be 1b 86 92 3e 66 08 4f be
       -0.14564574 -0.3242558 0.2861794 -0.20218047
000280 b9 1d 61 be e0 97 f1 bd 68 a6 98 be 37 c3 2e 3f
       -0.21983995 -0.11796546 -0.29814458 0.68266624
000290 5d 63 a4 be b5 dc 8c 3e b5 95 ba 3d ca 0f 14 3d
       -0.32107058 0.27512136 0.091105856 0.03614787
0002a0 00 f1 a4 bd f3 dc e3 be 26 23 91 bc 1d ff 04 bf
       -0.080537796 -0.44504508 -0.017716955 -0.5195177
0002b0 f6 d8 b3 3e ce 70 e4 3e bf a8 00 3f ad e7 26 3f
       0.35126466 0.44617313 0.50257486 0.6519726
0002c0 ca a3 05 3f ae 86 6f 3e 39 50 66 3e 11 cb 25 be
       0.5220305 0.2339122 0.2249154 -0.16190745
0002d0 d2 e4 eb 3e 05 55 a7 3e ab ff 1f be e3 02 b9 3e
       0.46073014 0.32682052 -0.15624873 0.36135015
0002e0 fc ce aa 3e ea af b9 3e b9 be 93 3e e8 e6 6f 3e
       0.33361042 0.36267024 0.28856447 0.23427927
0002f0 27 68 a7 3e d3 1f 2d 3f ea d1 7c 3e ad c5 24 3f
       0.3269665 0.67626685 0.24689451 0.6436413
000300 4f b0 b2 3c 99 29 1f 3f 0e a6 77 be 4b 8b da bd
       0.021812586 0.6217285 -0.24184439 -0.10671099
000310 ba 65 08 3f 9f 99 31 3e f4 27 a9 3e 3e 79 e9 bd
       0.5328022 0.17343758 0.33038294 -0.11400078
000320 fa 45 8a 3d 21 6c fe bd b8 7c cb bc 4c 31 d4 3e
       0.06751628 -0.12422968 -0.024839744 0.4144386
000330 2f 2e cb 3e 99 58 19 3f d7 40 00 3f ac ec 39 3f
       0.39683673 0.59900814 0.5009894 0.7262676
000340 83 73 48 bf ab b3 5d be 54 18 bc 3e 9e 1c 09 3f
       -0.78301257 -0.21650569 0.3673731 0.5355929
000350 7a 7a 9e 3e b7 f7 e0 3e a5 25 1d be e0 61 e7 3d
       0.30952817 0.4393899 -0.15346391 0.11297965
000360 66 3d 8a be c2 de 21 3f 9d 8c a5 bd 48 2d a8 3e
       -0.26999968 0.63230526 -0.080834605 0.32847047
000370 ac b6 d5 3e 2c bc 07 bf 60 a8 af 3e bf 2d c1 3c
       0.4174093 -0.530215 0.34308147 0.023581384
000380 81 90 1e be 1b 13 26 3e 69 bf cb 3e 5f 0b ba bd
       -0.15484811 0.16218226 0.39794472 -0.090842
000390 49 65 16 3f 79 43 e9 bd 35 55 13 3f ae 43 5e be
       0.587483 -0.113898225 0.5755189 -0.21705505
0003a0 f9 b4 01 3f 25 08 d0 be 48 79 8b 3e a7 d3 05 3f
       0.5066677 -0.40631214 0.27240968 0.5227608
0003b0 a3 1c 49 be f2 6e 06 3f 7e 52 00 3f 57 e2 3c 3e
       -0.1963983 0.5251304 0.50125873 0.18445717
0003c0 18 cc 18 3e e9 63 1b 3e e0 f4 ce 3e 60 be 2e 3f
       0.14921606 0.15174831 0.404212 0.6825924
0003d0 37 54 9e 3e 36 fd c4 3e 30 d4 1a be 01 6e 23 3d
       0.30923626 0.38474435 -0.15120006 0.03989983
0003e0 7e 0c c4 bd bd 83 9e bd b9 4b 09 3f e5 54 cd bb
       -0.09572695 -0.07739971 0.5363117 -0.0062662237
0003f0 e3 7d a6 3e bc 2d a9 bd 09 3b bf 3e b0 09 8b 3e
       0.3251792 -0.08260676 0.37349728 0.27155828

l1.bias f4 [8]
000000 33 7e c3 3e 8c 8a 80 3f fb 3c 2e 3f 9f 87 2b 3f
       0.3818222 1.0042281 0.680618 0.67003816
000010 85 87 3f 3f fa 6f ff 3e e0 30 ad 3f 0c 92 b8 3d
       0.7481616 0.4989012 1.353054 0.09012231

l2.weight f4 [8, 8]
000000 81 56 e2 3e ee cd a4 3f b8 24 98 3f a7 71 8b be
       0.44206622 1.2875345 1.1886206 -0.27235147
000010 f1 1d d7 be 16 6e df 3e 7c 1d 9f 3f 55 43 19 be
       -0.4201503 0.43638676 1.2430873 -0.14967091
000020 6d 89 66 3f 8b cb 38 bf 50 1f 4e 3e 54 34 1a 3f
       0.90053445 -0.7218558 0.20129132 0.60236096
000030 8d df a6 be e5 b1 0b 3f 8f 78 ef be c9 20 24 3f
       -0.3259243 0.5456832 -0.46771666 0.64112526
000040 fb 5d 45 bf 92 91 e1 bd 43 54 93 bf 32 6f 2e 3f
       -0.7709653 -0.110140935 -1.151009 0.6813842
000050 d7 d2 c4 3f ae 82 d0 3e dc ad cb 3e 68 5a 07 bf
       1.5376843 0.407247 0.39781082 -0.52872324
000060 cf b3 87 3d cc e7 9e 3d 03 22 a3 be 9c f5 27 be
       0.06626093 0.077590555 -0.31861886 -0.16402286
000070 c1 3b 41 be 12 cf 53 3e c9 75 cb 3c 9f e9 89 be
       -0.1887045 0.2068446 0.024836438 -0.2693605
000080 b9 f3 78 3f 1b 8c da be 69 7b f3 3e b2 83 76 3f
       0.9724689 -0.42685017 0.47555092 0.962947
000090 7a 27 4e 3f ae ae 91 3f 62 80 2c 3e 9c 7f 8d 3f
       0.80528986 1.1381433 0.16845849 1.1054568
0000a0 7d ad 55 bf b1 fc 46 3e 41 a9 30 bf ad fb 6d 3f
       -0.8346785 0.19432332 -0.6900826 0.9296215
0000b0 3f 51 73 3f ed 6b 61 bf d5 03 3d bd 57 51 f7 bd
       0.95045847 -0.88055307 -0.046146233 -0.12076061
0000c0 b9 00 86 bf 03 f8 ad 3f df 1f c7 3e be 58 b7 be
       -1.046897 1.3591312 0.38891503 -0.35809892
0000d0 d8 61 0f 3d ea 1d 72 bf f7 a8 81 3f f4 f9 17 bf
       0.03500542 -0.94576895 1.0129689 -0.59365773
0000e0 5b fc 85 be a5 76 19 bd 47 d4 aa bd 39 ed b4 be
       -0.26169094 -0.037466664 -0.0834127 -0.35337237
0000f0 df 88 a0 3d f1 83 9a 3e c3 ae 3c be e9 17 cd 3d
       0.07838606 0.30178788 -0.18426041 0.10014326

l2.bias f4 [8]
000000 af 62 24 3f d6 47 15 bf 0e 34 61 3f 07 0f 80 be
       0.6421308 -0.5831274 0.87970054 -0.25011465
000010 74 9d 65 bd be 0f 18 3f a7 c4 a6 3e cb 6a bf be
       -0.056058362 0.5939902 0.3257191 -0.37386164

l3.weight f4 [7, 8]
000000 d5 c6 2c be 53 3e 89 3f 23 ec 8d bf 1d 31 a3 be
       -0.16872723 1.0722145 -1.1087688 -0.31873408
000010 59 0c 9a 3e ac c0 6c bf 51 b5 b1 bf 4b a7 4a be
       0.30087546 -0.92481494 -1.3883458 -0.1979038
000020 bf ad c6 bf 75 22 5b bf 1d 36 17 3f 27 3c a4 3d
       -1.5521773 -0.8559945 0.59066945 0.08019286
000030 78 f1 ef bc 21 1b 71 3f df 53 98 bf 7a bb 38 3d
       -0.029289946 0.9418202 -1.1900595 0.045100667
000040 7f 59 28 3f 35 e2 92 bf 08 ff 97 bf 6e 65 58 3e
       0.6576156 -1.1475283 -1.1874704 0.21132442
000050 a2 97 1f be fa ae 78 bf cf 8f 83 be ab 8e 4f be
       -0.15585187 -0.97141993 -0.25695655 -0.20269267
000060 6c 7c 28 be 35 72 07 be 3f 36 2b 3f fd fe bd be
       -0.16453713 -0.1322716 0.6687965 -0.37108603
000070 da ec 95 bf 7f d0 ff 3e 84 6b 00 3f 76 37 53 3e
       -1.1712906 0.49963757 0.50164056 0.20626625
000080 28 f7 c7 bf 2f e8 7c 3f 32 c8 46 be 43 da 9f 3e
       -1.5622301 0.98791784 -0.19412306 0.31221208
000090 b3 57 2c 3f 6d c5 d9 bb e4 99 2d bf 5c b8 86 be
       0.6732132 -0.0066458494 -0.67812943 -0.2631253
0000a0 e5 0f b1 bd 86 17 51 bf 10 a3 3a 3f bd 19 37 be
       -0.0864561 -0.8167652 0.72905064 -0.17880912
0000b0 1e 24 06 3d a7 2c 96 bf 7f 92 b1 bf c8 a7 9a 3e
       0.032749288 -1.1732377 -1.3872832 0.30206132
0000c0 3d ca dd 3e 3f 6b 1a bc 2c 1c 5d bf 27 11 af 3d
       0.43318358 -0.0094249835 -0.8637111 0.085481934
0000d0 f8 d1 f5 bf 56 f5 4e bf 24 9b 80 3f fc 34 a8 3d
       -1.9204702 -0.808431 1.0047345 0.08213231

l3.bias f4 [7]
000000 12 2b 48 be 8d 2e 89 be 15 ab 2a be 6c df 33 3e
       -0.1954768 -0.26793328 -0.16666825 0.17565697
000010 3c 69 c8 be 36 a4 22 3f 96 ce f6 bd
       -0.39142787 0.63531816 -0.12051122
