Bot (reference)/data.pth (torch, 4991 bytes, 6 tensors)

l1.weight f4 [8, 54]
00000000: b44b 5abe a0f5 c3be 7aa8 1f3e 8723 1b3d
00000010: 9fde c53e a166 c83e 56de 633e 6d50 cdbd
00000020: 68ed d13e e863 61bd 6449 683e 655d 0b3f
00000030: 4202 f83e 5155 cc3e bd04 8abe 40c6 b63e
00000040: be7d 653e 2a01 fc3e 794c df3e 8aca b03e
00000050: 74d3 2bbe d1ad 8d3e c9f0 b73e 01ad af3e
00000060: d3c7 b23e 84a5 983c 2cf6 0a3f 6eb5 d2be
00000070: ea07 b83e f201 e4be 7cc7 6a3e 4a39 0c3f
00000080: 487f 533d 1714 243c 4ada babd 3a93 c63e
00000090: 682c bd3e 4ec1 ed3e c2b2 5b3e bbfe 8e3e
000000a0: faac 8d3e 01a6 033f 91b8 b53e 4d05 bcbd
000000b0: 6786 c43e a3ba acbd 42af 28bf 0a23 45be
000000c0: 5c40 7c3e dbb1 f73e 0d81 a63e c3c0 923e
000000d0: 437d 1f3e 8e08 893e b833 b3bd 6a68 6c3d
000000e0: 3113 053f b494 56be 5b22 433d 52f4 353f
000000f0: 3fa7 ad3e 2c60 903e ac27 303f 38c8 9c3e
00000100: c8e1 89be 54de 2fbe bcc7 6ebb 3f52 43be
00000110: 24b5 083d 845b 8fbd 816d 3dbe c06c 183f
00000120: bc1b a5be 47a4 e8be c9ae cf3c 3ca3 e8be
00000130: 979d e8be 28ca ddbe b6c7 393e 3eef 1ebd
00000140: 88d9 b6bd cf04 5f3e 58a9 8bbd 9765 0a3e
00000150: 81a2 b53e e9bd 41be b3eb 85bd 36c9 053f
00000160: 1fe5 2b3e 8358 5ebe 3257 a73d a8a8 013f
00000170: 98da b93e dbd6 763e 6fa8 fb3e 77dc d3be
00000180: 2db1 83bd 5e50 8b3e 6979 d83e 9169 983d
00000190: f866 183e cc73 8a3c 642e 53be 9f5f b5be
000001a0: 4a46 31be 1954 b6be 7a53 813e 9f91 a23e
000001b0: 05ed 82be 3d75 0c3f e09a bf3e 94c9 ec3e
000001c0: 98a2 bf3e 40a7 fcbe a52b b93e a17e c13e
000001d0: 6248 ec3e 9745 b13e d220 9b3e fb46 0f3e
000001e0: b961 903d 0d7a b1bd 35b3 ab3e d1fa 053e
000001f0: 2008 9c3e 5aaf fcbe 49c6 8bbe e0e9 0b3f
00000200: 7942 bcbd 5f0a 453f 44d6 2a3f c6d6 f13e
00000210: 89fe b63e 14db f63e 726d a1be be7b 283f
00000220: c11c bbbd 4ccc c13e c1e3 aabe e9c6 a03c
00000230: e079 5ebe 7f72 ff3e 261e 2f3f 79af cf3d
00000240: 1a06 15be 99ab 013f 9a87 863e 0c5f 763e
00000250: 110f 9ebe 21e6 d8be 07f0 da3d cd39 153f
00000260: 500d 603e 4420 fe3e 62e3 fcbe 4a6d 15be
00000270: bc84 f03d e0ab c4be 3f73 493e 27be 84be
00000280: 7e24 893e b70f 903e db7e 303f fab2 763e
00000290: 908c 493e 42a8 01be d72a e6be 68a3 333f
000002a0: 94d1 b83e db5f 523e 94ae c43e 4186 3a3e
000002b0: a163 aebe e6ed 93be edbb efbc 7886 a4be
000002c0: 718b f13d a802 18bc 20c9 92be dc7b 433f
000002d0: b696 95be cd98 20bf 7117 ea3e 3c9b 20bf
000002e0: 088a 20bf 9866 b9be 8e4a 373e e78e 98be
000002f0: b207 a1be 28e7 00bd 0bd5 d3bd 0931 b9bd
00000300: 1511 0b3f d39e 0cbe 4256 d93e 0906 5b3e
00000310: 8a48 b63e 595f 3ebe 3490 063e 443e f83e
00000320: f604 a73e af97 903e bfe4 dd3e 1911 d7be
00000330: 7071 ffbb eef7 0abd 34f1 973e 0c8a 6e3e
00000340: 417a 5e3f 654b ef3e 4086 4fbe d186 02bf
00000350: d901 34bd e162 a5be 29f9 2b3e 29a8 a93e
00000360: edb7 093f 1822 9cbe e88b 0ebf 8620 a53e
00000370: b3df d3bd 765c 083f 7b9f 21bd cd4f 52be
00000380: d1ca ebbe 641d a1be 7e63 793e 0206 8ebe
00000390: 620a 2abc 8742 82be 1047 21be 3a3e 08be
000003a0: e7f5 433e 8637 213f 54b8 f13e 65d0 e83e
000003b0: 5424 673e 1d9d 893e 961b 053f 2265 f93e
000003c0: ccdd 00be dce2 b33e 4afa 163f 367d c3be
000003d0: c2a0 cb3e 465a b2be 9008 d23e b7ce 80be
000003e0: a925 6c3e d33f a4be bc9f 30be c072 273d
000003f0: 4e86 663e e964 f6be 65f4 7ebe bd1b a8bd
-0.21317941 -0.38273335 0.15591612 0.03787568 0.3864641 0.391408 0.22252783 -0.100251056
0.4100144 -0.05502692 0.22684246 0.54439384 0.48439223 0.3990884 -0.2695674 0.35698128
0.22411248 0.49219638 0.43613032 0.34529525 -0.16779882 0.27671674 0.35925892 0.3431168
0.3491808 0.018633612 0.5428188 -0.41154045 0.35943538 -0.44532734 0.2292766 0.54774916
0.051635057 0.010014555 -0.091236666 0.387842 0.36947942 0.46436542 0.2145491 0.2792872
0.27671033 0.51425177 0.35492375 -0.091806985 0.3838379 -0.08434036 -0.6589242 -0.19251648
0.24633926 0.4837788 0.32520333 0.2866269 0.15575127 0.2676434 -0.08750099 0.057716765
0.5198241 -0.20955163 0.047640186 0.7107593 0.3391666 0.28198373 0.68810534 0.30621505
-0.2693007 -0.17174655 -0.003643497 -0.19074343 0.033375874 -0.06999877 -0.18498804 0.5954094
-0.32247722 -0.45437834 0.025351899 -0.45437038 -0.45432732 -0.43318295 0.1814259 -0.038802378
-0.089282095 0.21779178 -0.06819409 0.13515316 0.35475543 -0.18920101 -0.06539097 0.5226015
0.16786622 -0.21713452 0.08170928 0.50647974 0.36299586 0.24105398 0.49151942 -0.4137914
-0.06430278 0.27209753 0.4228013 0.0744201 0.1488303 0.01690092 -0.20623165 -0.35424516
-0.1731197 -0.35611036 0.25259 0.31751725 -0.25571457 0.5486639 0.37422848 0.46247542
0.37428737 -0.49346352 0.3616611 0.37791923 0.46148974 0.34623405 0.30298477 0.1399192
0.07049889 -0.086658575 0.33535162 0.1308396 0.3047495 -0.49352533 -0.27299717 0.5465374
-0.09192366 0.7696895 0.66733193 0.47234172 0.3574107 0.48214018 -0.31528813 0.65813816
-0.09136344 0.3785118 -0.33376887 0.019626098 -0.21726179 0.4989204 0.6840538 0.10140891
-0.14553109 0.5065246 0.2627533 0.24059695 -0.3087087 -0.42363074 0.10690313 0.5829132
0.21880078 0.49633992 -0.4939223 -0.14592472 0.11744067 -0.3841238 0.19672869 -0.25926325
0.26785654 0.2813699 0.68943566 0.24091712 0.19682527 -0.12661842 -0.4495456 0.70171213
0.36097395 0.20544378 0.38414443 0.18215276 -0.34060386 -0.2889244 -0.029264415 -0.32133842
0.117941745 -0.009277977 -0.2866907 0.7636087 -0.29216546 -0.62733155 0.4572101 -0.6273687
-0.6271062 -0.36211085 0.17899534 -0.29796526 -0.31451184 -0.031470448 -0.10343369 -0.09042556
0.5432294 -0.13732462 0.42448622 0.21389021 0.35602218 -0.1859106 0.13140947 0.48485005
0.32620972 0.28240725 0.43338582 -0.42005232 -0.007795505 -0.03392785 0.2967621 0.23294848
0.86905295 0.4673721 -0.20266056 -0.50986964 -0.043947075 -0.32302 0.16794266 0.3313611
0.53796273 -0.3049476 -0.5568223 0.32251376 -0.103454016 0.53266084 -0.039458733 -0.20538254
-0.46053174 -0.31467736 0.2435436 -0.2773896 -0.010378452 -0.2544138 -0.15749764 -0.13304988
0.19136773 0.6297535 0.47210944 0.45471492 0.22572452 0.2687768 0.5199522 0.4870997
-0.12584609 0.35134017 0.5897566 -0.38181466 0.39771086 -0.34834498 0.41022158 -0.2515771
0.23061241 -0.32079944 -0.17248434 0.04088092 0.2251217 -0.48123863 -0.24897917 -0.08208416

l1.bias f4 [8]
00000000: a8f9 173f d6a0 e83e a3a9 fc3e dea6 203f
00000010: 13d8 373f 75fc 373f 50bf 4c3f d487 903e
0.5936532 0.45435208 0.49348173 0.6275462 0.7181408 0.71869594 0.7997942 0.2822863

l2.weight f4 [8, 8]
00000000: dc19 59bf 788b aabe e231 37be 9c49 613f
00000010: 2f94 303f c56e 9a3f d1ec 1f3f 896b 7fbf
00000020: 0a18 823f ec22 44bf 049a 983e 955e 15bf
00000030: 0cbf 40bd 1bbb 9dbe 2453 953f 0b0f 2d3e
00000040: 23f9 7a3f 97d6 d0bd 49a6 47bf 4298 cebd
00000050: 8279 6d3f b787 39bf f3ea a1bd 8095 2d3e
00000060: 49aa 7d3f e9ca 11be 4516 48bf ad2f fe3d
00000070: 0c56 a83e 9450 a3bd c371 1dbf 8383 2f3f
00000080: 7ce9 943e 60c9 8a3f c064 8c3f 5d55 783f
00000090: 0ad6 8fbf d320 53bf 2727 8d3e 1721 8c3f
000000a0: d1b5 7a3e fca9 29bf e273 6a3f 724a 87bf
000000b0: d527 273f eb8d 6b3f 959a 683f 37a6 44bf
000000c0: 2b3c 0b3e 08c7 98be da92 243f cb37 983d
000000d0: ebc8 0dbe 1027 0abf 37be 50bf a140 1b3f
000000e0: 3679 123f d341 543f c5cc 51bf ee8e a93f
000000f0: 1038 8c3f 774b 143f 5e52 023f 178b 9ebe
-0.84805083 -0.3330953 -0.17890123 0.88002944 0.6897611 1.2065054 0.6247073 -0.9977346
1.0163586 -0.76615787 0.29805005 -0.58347446 -0.047057196 -0.30806813 1.1665998 0.1690027
0.980364 -0.1019718 -0.77988106 -0.100876346 0.9276353 -0.7247271 -0.07906141 0.16951561
0.9908796 -0.1423756 -0.7815898 0.12411437 0.3287815 -0.079743534 -0.6150171 0.68560046
0.29084384 1.0842705 1.0968246 0.97005254 -1.1237195 -0.8247196 0.27568933 1.0947598
0.2448342 -0.66275 0.91583073 -1.0569594 0.65295154 0.92013425 0.90860873 -0.76816124
0.13597171 -0.2983935 0.6428658 0.07432517 -0.13846175 -0.53965855 -0.81540245 0.6064549
0.57216203 0.8291294 -0.8195308 1.3246744 1.0954609 0.5792765 0.5090693 -0.30965492

l2.bias f4 [8]
00000000: 443d da3e ef6d 9f3e cd1c 823e 3b55 c73e
00000010: 15aa fc3e 20be fd3e 2721 ec3e 6302 7a3e
0.42624867 0.3113856 0.25412598 0.38932213 0.49348512 0.49559116 0.46119043 0.24414973

l3.weight f4 [7, 8]
00000000: 42e4 56bf a19d be3e 421f 20be 618b 323f
00000010: 5651 a6bc 75fd 56bf 0952 0c3f 830e 19bf
00000020: 6bd5 10bf d916 98bf 85b7 81bf 958c 86bf
00000030: 1ebc 3d3f 8a7c cbbe 882d 753f 43cf 87bf
00000040: d0e0 61be 7631 bbbf b960 0a3f 6ae9 aa3e
00000050: 1a8f b73d e0be 7abf 77bc e3be df84 323f
00000060: fce8 5c3e bb7b 093f f880 19bf efce abbf
00000070: aedd 06bf a10d 813f 5fba 05be 777f a8be
00000080: a138 bbbf b6be 173f e1ec d93e ef57 fb3d
00000090: 2554 83bf 8021 2ebe a96d 253d 2c2e 883e
000000a0: ebec 9bbf 4930 cc3e d54c 91bf c894 84bf
000000b0: 9709 113f d47b 94be 4829 77bf ffd2 813e
000000c0: d365 7f3f 759c b1bf a680 babf a184 adbf
000000d0: 2040 0fbf 73d5 ebbc 4112 55bd 5ec2 063f
-0.83942044 0.37229636 -0.15636924 0.69743925 -0.020302456 -0.83980495 0.54812676 -0.5978777
-0.5657565 -1.1881973 -1.0134131 -1.0511652 0.7411517 -0.39743453 0.957726 -1.0610126
-0.22058415 -1.4624469 0.5405384 0.33381206 0.08962841 -0.979475 -0.44479725 0.69733995
0.21573251 0.5370442 -0.59962416 -1.3422526 -0.52682006 1.0082284 -0.13059376 -0.32909748
-1.4626657 0.59275377 0.42563537 0.122726314 -1.0260054 -0.17004967 0.040387783 0.26597726
-1.2181677 0.3988059 -1.1351572 -1.0357904 0.5665526 -0.29000723 -0.96547365 0.2535629
0.99764746 -1.3875872 -1.457051 -1.35561 -0.5595722 -0.028788304 -0.05201936 0.5264033

l3.bias f4 [7]
00000000: 6a06 f5bd 6c33 cf3e 638d d7bd a56f 8c3e
00000010: 4d39 a4be cb75 2a3e a9fb debd
-0.11964114 0.4046892 -0.10525014 0.27428928 -0.32074967 0.16646497 -0.10887844
